

Run Summary:
Test accuracy:0.5410000085830688, Test Loss:1.314813099861145
Epoch:1, Batch size:256
Total time: 2.77 mins
_________________________________________________________________
Layer (type)                 Output Shape              Param #   
=================================================================
conv2d (Conv2D)              (None, 32, 32, 32)        896       
_________________________________________________________________
conv2d_1 (Conv2D)            (None, 32, 32, 64)        18496     
_________________________________________________________________
max_pooling2d (MaxPooling2D) (None, 16, 16, 64)        0         
_________________________________________________________________
dropout (Dropout)            (None, 16, 16, 64)        0         
_________________________________________________________________
flatten (Flatten)            (None, 16384)             0         
_________________________________________________________________
dense (Dense)                (None, 512)               8389120   
_________________________________________________________________
dropout_1 (Dropout)          (None, 512)               0         
_________________________________________________________________
dense_1 (Dense)              (None, 10)                5130      
=================================================================
Total params: 8,413,642
Trainable params: 8,413,642
Non-trainable params: 0
_________________________________________________________________


Run Summary:
Test accuracy:0.4916999936103821, Test Loss:1.4533446054458619
Epoch:1, Batch size:500
Total time: 2.52 mins
_________________________________________________________________
Layer (type)                 Output Shape              Param #   
=================================================================
conv2d (Conv2D)              (None, 32, 32, 32)        896       
_________________________________________________________________
conv2d_1 (Conv2D)            (None, 32, 32, 64)        18496     
_________________________________________________________________
max_pooling2d (MaxPooling2D) (None, 16, 16, 64)        0         
_________________________________________________________________
dropout (Dropout)            (None, 16, 16, 64)        0         
_________________________________________________________________
flatten (Flatten)            (None, 16384)             0         
_________________________________________________________________
dense (Dense)                (None, 512)               8389120   
_________________________________________________________________
dropout_1 (Dropout)          (None, 512)               0         
_________________________________________________________________
dense_1 (Dense)              (None, 10)                5130      
=================================================================
Total params: 8,413,642
Trainable params: 8,413,642
Non-trainable params: 0
_________________________________________________________________


Run Summary:
Test accuracy:0.5645999908447266, Test Loss:1.2487367311477662
Epoch:2, Batch size:500
Total time: 4.72 mins
_________________________________________________________________
Layer (type)                 Output Shape              Param #   
=================================================================
conv2d (Conv2D)              (None, 32, 32, 32)        896       
_________________________________________________________________
conv2d_1 (Conv2D)            (None, 32, 32, 64)        18496     
_________________________________________________________________
max_pooling2d (MaxPooling2D) (None, 16, 16, 64)        0         
_________________________________________________________________
dropout (Dropout)            (None, 16, 16, 64)        0         
_________________________________________________________________
flatten (Flatten)            (None, 16384)             0         
_________________________________________________________________
dense (Dense)                (None, 512)               8389120   
_________________________________________________________________
dropout_1 (Dropout)          (None, 512)               0         
_________________________________________________________________
dense_1 (Dense)              (None, 10)                5130      
=================================================================
Total params: 8,413,642
Trainable params: 8,413,642
Non-trainable params: 0
_________________________________________________________________


Run Summary:
Test accuracy:0.6898999810218811, Test Loss:0.9148851795196533
Epoch:8, Batch size:500
Total time: 18.39 mins
_________________________________________________________________
Layer (type)                 Output Shape              Param #   
=================================================================
conv2d (Conv2D)              (None, 32, 32, 32)        896       
_________________________________________________________________
conv2d_1 (Conv2D)            (None, 32, 32, 64)        18496     
_________________________________________________________________
max_pooling2d (MaxPooling2D) (None, 16, 16, 64)        0         
_________________________________________________________________
dropout (Dropout)            (None, 16, 16, 64)        0         
_________________________________________________________________
flatten (Flatten)            (None, 16384)             0         
_________________________________________________________________
dense (Dense)                (None, 512)               8389120   
_________________________________________________________________
dropout_1 (Dropout)          (None, 512)               0         
_________________________________________________________________
dense_1 (Dense)              (None, 10)                5130      
=================================================================
Total params: 8,413,642
Trainable params: 8,413,642
Non-trainable params: 0
_________________________________________________________________


Run Summary:
Test accuracy:0.4964999854564667, Test Loss:1.4400761238098145
Epoch:8, Batch size:5000
Total time: 18.04 mins
_________________________________________________________________
Layer (type)                 Output Shape              Param #   
=================================================================
conv2d (Conv2D)              (None, 32, 32, 32)        896       
_________________________________________________________________
conv2d_1 (Conv2D)            (None, 32, 32, 64)        18496     
_________________________________________________________________
max_pooling2d (MaxPooling2D) (None, 16, 16, 64)        0         
_________________________________________________________________
dropout (Dropout)            (None, 16, 16, 64)        0         
_________________________________________________________________
flatten (Flatten)            (None, 16384)             0         
_________________________________________________________________
dense (Dense)                (None, 512)               8389120   
_________________________________________________________________
dropout_1 (Dropout)          (None, 512)               0         
_________________________________________________________________
dense_1 (Dense)              (None, 10)                5130      
=================================================================
Total params: 8,413,642
Trainable params: 8,413,642
Non-trainable params: 0
_________________________________________________________________


Run Summary:
Test accuracy:0.6621999740600586, Test Loss:0.9872127067565918
Epoch:8, Batch size:1000
Total time: 12.45 mins
_________________________________________________________________
Layer (type)                 Output Shape              Param #   
=================================================================
conv2d (Conv2D)              (None, 32, 32, 32)        896       
_________________________________________________________________
conv2d_1 (Conv2D)            (None, 32, 32, 32)        9248      
_________________________________________________________________
max_pooling2d (MaxPooling2D) (None, 16, 16, 32)        0         
_________________________________________________________________
dropout (Dropout)            (None, 16, 16, 32)        0         
_________________________________________________________________
flatten (Flatten)            (None, 8192)              0         
_________________________________________________________________
dense (Dense)                (None, 512)               4194816   
_________________________________________________________________
dropout_1 (Dropout)          (None, 512)               0         
_________________________________________________________________
dense_1 (Dense)              (None, 10)                5130      
=================================================================
Total params: 4,210,090
Trainable params: 4,210,090
Non-trainable params: 0
_________________________________________________________________


Run Summary:
Test accuracy:0.6794000267982483, Test Loss:0.9296183238983154
Epoch:6, Batch size:500
Total time: 9.59 mins
_________________________________________________________________
Layer (type)                 Output Shape              Param #   
=================================================================
conv2d (Conv2D)              (None, 32, 32, 32)        896       
_________________________________________________________________
conv2d_1 (Conv2D)            (None, 32, 32, 32)        9248      
_________________________________________________________________
max_pooling2d (MaxPooling2D) (None, 16, 16, 32)        0         
_________________________________________________________________
dropout (Dropout)            (None, 16, 16, 32)        0         
_________________________________________________________________
flatten (Flatten)            (None, 8192)              0         
_________________________________________________________________
dense (Dense)                (None, 512)               4194816   
_________________________________________________________________
dropout_1 (Dropout)          (None, 512)               0         
_________________________________________________________________
dense_1 (Dense)              (None, 10)                5130      
=================================================================
Total params: 4,210,090
Trainable params: 4,210,090
Non-trainable params: 0
_________________________________________________________________


Run Summary:
Test accuracy:0.6011999845504761, Test Loss:1.1402329288482667
Epoch:5, Batch size:500
Total time: 8.23 mins
_________________________________________________________________
Layer (type)                 Output Shape              Param #   
=================================================================
conv2d (Conv2D)              (None, 32, 32, 32)        896       
_________________________________________________________________
conv2d_1 (Conv2D)            (None, 32, 32, 32)        9248      
_________________________________________________________________
max_pooling2d (MaxPooling2D) (None, 16, 16, 32)        0         
_________________________________________________________________
dropout (Dropout)            (None, 16, 16, 32)        0         
_________________________________________________________________
flatten (Flatten)            (None, 8192)              0         
_________________________________________________________________
dense (Dense)                (None, 512)               4194816   
_________________________________________________________________
dropout_1 (Dropout)          (None, 512)               0         
_________________________________________________________________
dense_1 (Dense)              (None, 10)                5130      
=================================================================
Total params: 4,210,090
Trainable params: 4,210,090
Non-trainable params: 0
_________________________________________________________________


Run Summary:
Test accuracy:0.6008999943733215, Test Loss:1.1403497150421142
Epoch:5, Batch size:500
Total time: 1.39 mins
_________________________________________________________________
Layer (type)                 Output Shape              Param #   
=================================================================
conv2d (Conv2D)              (None, 32, 32, 32)        896       
_________________________________________________________________
conv2d_1 (Conv2D)            (None, 32, 32, 32)        9248      
_________________________________________________________________
max_pooling2d (MaxPooling2D) (None, 16, 16, 32)        0         
_________________________________________________________________
dropout (Dropout)            (None, 16, 16, 32)        0         
_________________________________________________________________
flatten (Flatten)            (None, 8192)              0         
_________________________________________________________________
dense (Dense)                (None, 512)               4194816   
_________________________________________________________________
dropout_1 (Dropout)          (None, 512)               0         
_________________________________________________________________
dense_1 (Dense)              (None, 10)                5130      
=================================================================
Total params: 4,210,090
Trainable params: 4,210,090
Non-trainable params: 0
_________________________________________________________________


Run Summary:
Test accuracy:0.40799999237060547, Test Loss:9.02145703277588
Epoch:5, Batch size:500
Total time: 1.95 mins
_________________________________________________________________
Layer (type)                 Output Shape              Param #   
=================================================================
conv2d (Conv2D)              (None, 32, 32, 32)        896       
_________________________________________________________________
batch_normalization_v1 (Batc (None, 32, 32, 32)        128       
_________________________________________________________________
conv2d_1 (Conv2D)            (None, 32, 32, 64)        18496     
_________________________________________________________________
batch_normalization_v1_1 (Ba (None, 32, 32, 64)        256       
_________________________________________________________________
conv2d_2 (Conv2D)            (None, 32, 32, 128)       73856     
_________________________________________________________________
batch_normalization_v1_2 (Ba (None, 32, 32, 128)       512       
_________________________________________________________________
max_pooling2d (MaxPooling2D) (None, 16, 16, 128)       0         
_________________________________________________________________
dropout (Dropout)            (None, 16, 16, 128)       0         
_________________________________________________________________
flatten (Flatten)            (None, 32768)             0         
_________________________________________________________________
dense (Dense)                (None, 512)               16777728  
_________________________________________________________________
dropout_1 (Dropout)          (None, 512)               0         
_________________________________________________________________
dense_1 (Dense)              (None, 10)                5130      
=================================================================
Total params: 16,877,002
Trainable params: 16,876,554
Non-trainable params: 448
_________________________________________________________________


Run Summary:
Test accuracy:0.6488999724388123, Test Loss:1.0215951910018921
Epoch:5, Batch size:500
Total time: 1.53 mins
_________________________________________________________________
Layer (type)                 Output Shape              Param #   
=================================================================
conv2d (Conv2D)              (None, 32, 32, 32)        896       
_________________________________________________________________
conv2d_1 (Conv2D)            (None, 32, 32, 64)        18496     
_________________________________________________________________
conv2d_2 (Conv2D)            (None, 32, 32, 128)       73856     
_________________________________________________________________
max_pooling2d (MaxPooling2D) (None, 16, 16, 128)       0         
_________________________________________________________________
dropout (Dropout)            (None, 16, 16, 128)       0         
_________________________________________________________________
flatten (Flatten)            (None, 32768)             0         
_________________________________________________________________
dense (Dense)                (None, 512)               16777728  
_________________________________________________________________
dropout_1 (Dropout)          (None, 512)               0         
_________________________________________________________________
dense_1 (Dense)              (None, 10)                5130      
=================================================================
Total params: 16,876,106
Trainable params: 16,876,106
Non-trainable params: 0
_________________________________________________________________


Run Summary:
Test accuracy:0.7038000226020813, Test Loss:0.852267104434967
Epoch:5, Batch size:500
Total time: 1.5 mins
_________________________________________________________________
Layer (type)                 Output Shape              Param #   
=================================================================
conv2d (Conv2D)              (None, 32, 32, 32)        896       
_________________________________________________________________
conv2d_1 (Conv2D)            (None, 32, 32, 64)        18496     
_________________________________________________________________
conv2d_2 (Conv2D)            (None, 32, 32, 128)       73856     
_________________________________________________________________
max_pooling2d (MaxPooling2D) (None, 16, 16, 128)       0         
_________________________________________________________________
dropout (Dropout)            (None, 16, 16, 128)       0         
_________________________________________________________________
flatten (Flatten)            (None, 32768)             0         
_________________________________________________________________
dense (Dense)                (None, 512)               16777728  
_________________________________________________________________
dropout_1 (Dropout)          (None, 512)               0         
_________________________________________________________________
dense_1 (Dense)              (None, 10)                5130      
=================================================================
Total params: 16,876,106
Trainable params: 16,876,106
Non-trainable params: 0
_________________________________________________________________


Run Summary:
Test accuracy:0.7328000068664551, Test Loss:0.8305359820365906
Epoch:10, Batch size:500
Total time: 2.83 mins
_________________________________________________________________
Layer (type)                 Output Shape              Param #   
=================================================================
conv2d (Conv2D)              (None, 32, 32, 32)        896       
_________________________________________________________________
conv2d_1 (Conv2D)            (None, 32, 32, 64)        18496     
_________________________________________________________________
conv2d_2 (Conv2D)            (None, 32, 32, 128)       73856     
_________________________________________________________________
max_pooling2d (MaxPooling2D) (None, 16, 16, 128)       0         
_________________________________________________________________
dropout (Dropout)            (None, 16, 16, 128)       0         
_________________________________________________________________
flatten (Flatten)            (None, 32768)             0         
_________________________________________________________________
dense (Dense)                (None, 512)               16777728  
_________________________________________________________________
dropout_1 (Dropout)          (None, 512)               0         
_________________________________________________________________
dense_1 (Dense)              (None, 10)                5130      
=================================================================
Total params: 16,876,106
Trainable params: 16,876,106
Non-trainable params: 0
_________________________________________________________________


Run Summary:
Test accuracy:0.739300012588501, Test Loss:0.9172995834350586
Epoch:10, Batch size:100
Total time: 4.01 mins
_________________________________________________________________
Layer (type)                 Output Shape              Param #   
=================================================================
conv2d (Conv2D)              (None, 32, 32, 32)        896       
_________________________________________________________________
conv2d_1 (Conv2D)            (None, 32, 32, 64)        18496     
_________________________________________________________________
conv2d_2 (Conv2D)            (None, 32, 32, 128)       73856     
_________________________________________________________________
max_pooling2d (MaxPooling2D) (None, 16, 16, 128)       0         
_________________________________________________________________
dropout (Dropout)            (None, 16, 16, 128)       0         
_________________________________________________________________
flatten (Flatten)            (None, 32768)             0         
_________________________________________________________________
dense (Dense)                (None, 512)               16777728  
_________________________________________________________________
dropout_1 (Dropout)          (None, 512)               0         
_________________________________________________________________
dense_1 (Dense)              (None, 10)                5130      
=================================================================
Total params: 16,876,106
Trainable params: 16,876,106
Non-trainable params: 0
_________________________________________________________________


Run Summary:
Test accuracy:0.739300012588501, Test Loss:1.0904674927711486
Epoch:20, Batch size:500
Total time: 5.51 mins
_________________________________________________________________
Layer (type)                 Output Shape              Param #   
=================================================================
conv2d (Conv2D)              (None, 32, 32, 32)        896       
_________________________________________________________________
conv2d_1 (Conv2D)            (None, 32, 32, 64)        18496     
_________________________________________________________________
conv2d_2 (Conv2D)            (None, 32, 32, 128)       73856     
_________________________________________________________________
max_pooling2d (MaxPooling2D) (None, 16, 16, 128)       0         
_________________________________________________________________
dropout (Dropout)            (None, 16, 16, 128)       0         
_________________________________________________________________
flatten (Flatten)            (None, 32768)             0         
_________________________________________________________________
dense (Dense)                (None, 512)               16777728  
_________________________________________________________________
dropout_1 (Dropout)          (None, 512)               0         
_________________________________________________________________
dense_1 (Dense)              (None, 10)                5130      
=================================================================
Total params: 16,876,106
Trainable params: 16,876,106
Non-trainable params: 0
_________________________________________________________________


Run Summary:
Test accuracy:0.7935000061988831, Test Loss:0.6776683016777039
Epoch:20, Batch size:500
Total time: 3.19 mins
_________________________________________________________________
Layer (type)                 Output Shape              Param #   
=================================================================
conv2d (Conv2D)              (None, 32, 32, 32)        896       
_________________________________________________________________
batch_normalization_v1 (Batc (None, 32, 32, 32)        128       
_________________________________________________________________
conv2d_1 (Conv2D)            (None, 32, 32, 32)        9248      
_________________________________________________________________
batch_normalization_v1_1 (Ba (None, 32, 32, 32)        128       
_________________________________________________________________
max_pooling2d (MaxPooling2D) (None, 16, 16, 32)        0         
_________________________________________________________________
dropout (Dropout)            (None, 16, 16, 32)        0         
_________________________________________________________________
conv2d_2 (Conv2D)            (None, 16, 16, 64)        18496     
_________________________________________________________________
batch_normalization_v1_2 (Ba (None, 16, 16, 64)        256       
_________________________________________________________________
conv2d_3 (Conv2D)            (None, 16, 16, 64)        36928     
_________________________________________________________________
batch_normalization_v1_3 (Ba (None, 16, 16, 64)        256       
_________________________________________________________________
max_pooling2d_1 (MaxPooling2 (None, 8, 8, 64)          0         
_________________________________________________________________
dropout_1 (Dropout)          (None, 8, 8, 64)          0         
_________________________________________________________________
flatten (Flatten)            (None, 4096)              0         
_________________________________________________________________
dense (Dense)                (None, 512)               2097664   
_________________________________________________________________
dropout_2 (Dropout)          (None, 512)               0         
_________________________________________________________________
dense_1 (Dense)              (None, 10)                5130      
=================================================================
Total params: 2,169,130
Trainable params: 2,168,746
Non-trainable params: 384
_________________________________________________________________


Run Summary:
Test accuracy:0.8191999793052673, Test Loss:0.5557839287400246
Epoch:20, Batch size:500
Total time: 3.75 mins
_________________________________________________________________
Layer (type)                 Output Shape              Param #   
=================================================================
conv2d (Conv2D)              (None, 32, 32, 32)        896       
_________________________________________________________________
batch_normalization_v1 (Batc (None, 32, 32, 32)        128       
_________________________________________________________________
conv2d_1 (Conv2D)            (None, 32, 32, 32)        9248      
_________________________________________________________________
batch_normalization_v1_1 (Ba (None, 32, 32, 32)        128       
_________________________________________________________________
max_pooling2d (MaxPooling2D) (None, 16, 16, 32)        0         
_________________________________________________________________
dropout (Dropout)            (None, 16, 16, 32)        0         
_________________________________________________________________
conv2d_2 (Conv2D)            (None, 16, 16, 64)        18496     
_________________________________________________________________
batch_normalization_v1_2 (Ba (None, 16, 16, 64)        256       
_________________________________________________________________
conv2d_3 (Conv2D)            (None, 16, 16, 64)        36928     
_________________________________________________________________
batch_normalization_v1_3 (Ba (None, 16, 16, 64)        256       
_________________________________________________________________
max_pooling2d_1 (MaxPooling2 (None, 8, 8, 64)          0         
_________________________________________________________________
dropout_1 (Dropout)          (None, 8, 8, 64)          0         
_________________________________________________________________
conv2d_4 (Conv2D)            (None, 8, 8, 128)         73856     
_________________________________________________________________
batch_normalization_v1_4 (Ba (None, 8, 8, 128)         512       
_________________________________________________________________
conv2d_5 (Conv2D)            (None, 8, 8, 128)         147584    
_________________________________________________________________
batch_normalization_v1_5 (Ba (None, 8, 8, 128)         512       
_________________________________________________________________
max_pooling2d_2 (MaxPooling2 (None, 4, 4, 128)         0         
_________________________________________________________________
dropout_2 (Dropout)          (None, 4, 4, 128)         0         
_________________________________________________________________
flatten (Flatten)            (None, 2048)              0         
_________________________________________________________________
dense (Dense)                (None, 512)               1049088   
_________________________________________________________________
dropout_3 (Dropout)          (None, 512)               0         
_________________________________________________________________
dense_1 (Dense)              (None, 10)                5130      
=================================================================
Total params: 1,343,018
Trainable params: 1,342,122
Non-trainable params: 896
_________________________________________________________________


Run Summary:
Test accuracy:0.8402000069618225, Test Loss:0.507714232826233
Epoch:30, Batch size:500
Total time: 5.58 mins
_________________________________________________________________
Layer (type)                 Output Shape              Param #   
=================================================================
conv2d (Conv2D)              (None, 32, 32, 32)        896       
_________________________________________________________________
batch_normalization_v1 (Batc (None, 32, 32, 32)        128       
_________________________________________________________________
conv2d_1 (Conv2D)            (None, 32, 32, 32)        9248      
_________________________________________________________________
batch_normalization_v1_1 (Ba (None, 32, 32, 32)        128       
_________________________________________________________________
max_pooling2d (MaxPooling2D) (None, 16, 16, 32)        0         
_________________________________________________________________
dropout (Dropout)            (None, 16, 16, 32)        0         
_________________________________________________________________
conv2d_2 (Conv2D)            (None, 16, 16, 64)        18496     
_________________________________________________________________
batch_normalization_v1_2 (Ba (None, 16, 16, 64)        256       
_________________________________________________________________
conv2d_3 (Conv2D)            (None, 16, 16, 64)        36928     
_________________________________________________________________
batch_normalization_v1_3 (Ba (None, 16, 16, 64)        256       
_________________________________________________________________
max_pooling2d_1 (MaxPooling2 (None, 8, 8, 64)          0         
_________________________________________________________________
dropout_1 (Dropout)          (None, 8, 8, 64)          0         
_________________________________________________________________
conv2d_4 (Conv2D)            (None, 8, 8, 128)         73856     
_________________________________________________________________
batch_normalization_v1_4 (Ba (None, 8, 8, 128)         512       
_________________________________________________________________
conv2d_5 (Conv2D)            (None, 8, 8, 128)         147584    
_________________________________________________________________
batch_normalization_v1_5 (Ba (None, 8, 8, 128)         512       
_________________________________________________________________
max_pooling2d_2 (MaxPooling2 (None, 4, 4, 128)         0         
_________________________________________________________________
dropout_2 (Dropout)          (None, 4, 4, 128)         0         
_________________________________________________________________
flatten (Flatten)            (None, 2048)              0         
_________________________________________________________________
dense (Dense)                (None, 512)               1049088   
_________________________________________________________________
dropout_3 (Dropout)          (None, 512)               0         
_________________________________________________________________
dense_1 (Dense)              (None, 10)                5130      
=================================================================
Total params: 1,343,018
Trainable params: 1,342,122
Non-trainable params: 896
_________________________________________________________________


Run Summary:
Test accuracy:0.848800003528595, Test Loss:0.5194014846086502
Epoch:30, Batch size:500
Total time: 6.38 mins
_________________________________________________________________
Layer (type)                 Output Shape              Param #   
=================================================================
conv2d (Conv2D)              (None, 32, 32, 32)        896       
_________________________________________________________________
batch_normalization_v1 (Batc (None, 32, 32, 32)        128       
_________________________________________________________________
conv2d_1 (Conv2D)            (None, 32, 32, 32)        9248      
_________________________________________________________________
batch_normalization_v1_1 (Ba (None, 32, 32, 32)        128       
_________________________________________________________________
max_pooling2d (MaxPooling2D) (None, 16, 16, 32)        0         
_________________________________________________________________
dropout (Dropout)            (None, 16, 16, 32)        0         
_________________________________________________________________
conv2d_2 (Conv2D)            (None, 16, 16, 64)        18496     
_________________________________________________________________
batch_normalization_v1_2 (Ba (None, 16, 16, 64)        256       
_________________________________________________________________
conv2d_3 (Conv2D)            (None, 16, 16, 64)        36928     
_________________________________________________________________
batch_normalization_v1_3 (Ba (None, 16, 16, 64)        256       
_________________________________________________________________
max_pooling2d_1 (MaxPooling2 (None, 8, 8, 64)          0         
_________________________________________________________________
dropout_1 (Dropout)          (None, 8, 8, 64)          0         
_________________________________________________________________
conv2d_4 (Conv2D)            (None, 8, 8, 128)         73856     
_________________________________________________________________
batch_normalization_v1_4 (Ba (None, 8, 8, 128)         512       
_________________________________________________________________
conv2d_5 (Conv2D)            (None, 8, 8, 128)         147584    
_________________________________________________________________
batch_normalization_v1_5 (Ba (None, 8, 8, 128)         512       
_________________________________________________________________
max_pooling2d_2 (MaxPooling2 (None, 4, 4, 128)         0         
_________________________________________________________________
dropout_2 (Dropout)          (None, 4, 4, 128)         0         
_________________________________________________________________
conv2d_6 (Conv2D)            (None, 4, 4, 256)         295168    
_________________________________________________________________
batch_normalization_v1_6 (Ba (None, 4, 4, 256)         1024      
_________________________________________________________________
conv2d_7 (Conv2D)            (None, 4, 4, 256)         590080    
_________________________________________________________________
batch_normalization_v1_7 (Ba (None, 4, 4, 256)         1024      
_________________________________________________________________
max_pooling2d_3 (MaxPooling2 (None, 2, 2, 256)         0         
_________________________________________________________________
dropout_3 (Dropout)          (None, 2, 2, 256)         0         
_________________________________________________________________
flatten (Flatten)            (None, 1024)              0         
_________________________________________________________________
dense (Dense)                (None, 512)               524800    
_________________________________________________________________
dropout_4 (Dropout)          (None, 512)               0         
_________________________________________________________________
dense_1 (Dense)              (None, 10)                5130      
=================================================================
Total params: 1,706,026
Trainable params: 1,704,106
Non-trainable params: 1,920
_________________________________________________________________


Run Summary:
Test accuracy:0.8511000275611877, Test Loss:0.5080719628095627
Epoch:40, Batch size:500
Total time: 7.38 mins
_________________________________________________________________
Layer (type)                 Output Shape              Param #   
=================================================================
conv2d (Conv2D)              (None, 32, 32, 32)        896       
_________________________________________________________________
batch_normalization_v1 (Batc (None, 32, 32, 32)        128       
_________________________________________________________________
conv2d_1 (Conv2D)            (None, 32, 32, 32)        9248      
_________________________________________________________________
batch_normalization_v1_1 (Ba (None, 32, 32, 32)        128       
_________________________________________________________________
max_pooling2d (MaxPooling2D) (None, 16, 16, 32)        0         
_________________________________________________________________
dropout (Dropout)            (None, 16, 16, 32)        0         
_________________________________________________________________
conv2d_2 (Conv2D)            (None, 16, 16, 64)        18496     
_________________________________________________________________
batch_normalization_v1_2 (Ba (None, 16, 16, 64)        256       
_________________________________________________________________
conv2d_3 (Conv2D)            (None, 16, 16, 64)        36928     
_________________________________________________________________
batch_normalization_v1_3 (Ba (None, 16, 16, 64)        256       
_________________________________________________________________
max_pooling2d_1 (MaxPooling2 (None, 8, 8, 64)          0         
_________________________________________________________________
dropout_1 (Dropout)          (None, 8, 8, 64)          0         
_________________________________________________________________
conv2d_4 (Conv2D)            (None, 8, 8, 128)         73856     
_________________________________________________________________
batch_normalization_v1_4 (Ba (None, 8, 8, 128)         512       
_________________________________________________________________
conv2d_5 (Conv2D)            (None, 8, 8, 128)         147584    
_________________________________________________________________
batch_normalization_v1_5 (Ba (None, 8, 8, 128)         512       
_________________________________________________________________
max_pooling2d_2 (MaxPooling2 (None, 4, 4, 128)         0         
_________________________________________________________________
dropout_2 (Dropout)          (None, 4, 4, 128)         0         
_________________________________________________________________
flatten (Flatten)            (None, 2048)              0         
_________________________________________________________________
dense (Dense)                (None, 512)               1049088   
_________________________________________________________________
dropout_3 (Dropout)          (None, 512)               0         
_________________________________________________________________
dense_1 (Dense)              (None, 10)                5130      
=================================================================
Total params: 1,343,018
Trainable params: 1,342,122
Non-trainable params: 896
_________________________________________________________________


Run Summary:
Test accuracy:0.8364999890327454, Test Loss:0.5192314349651337
Epoch:40, Batch size:500
Total time: 7.4 mins
_________________________________________________________________
Layer (type)                 Output Shape              Param #   
=================================================================
conv2d (Conv2D)              (None, 32, 32, 32)        896       
_________________________________________________________________
batch_normalization_v1 (Batc (None, 32, 32, 32)        128       
_________________________________________________________________
conv2d_1 (Conv2D)            (None, 32, 32, 32)        9248      
_________________________________________________________________
batch_normalization_v1_1 (Ba (None, 32, 32, 32)        128       
_________________________________________________________________
max_pooling2d (MaxPooling2D) (None, 16, 16, 32)        0         
_________________________________________________________________
dropout (Dropout)            (None, 16, 16, 32)        0         
_________________________________________________________________
conv2d_2 (Conv2D)            (None, 16, 16, 64)        18496     
_________________________________________________________________
batch_normalization_v1_2 (Ba (None, 16, 16, 64)        256       
_________________________________________________________________
conv2d_3 (Conv2D)            (None, 16, 16, 64)        36928     
_________________________________________________________________
batch_normalization_v1_3 (Ba (None, 16, 16, 64)        256       
_________________________________________________________________
max_pooling2d_1 (MaxPooling2 (None, 8, 8, 64)          0         
_________________________________________________________________
dropout_1 (Dropout)          (None, 8, 8, 64)          0         
_________________________________________________________________
conv2d_4 (Conv2D)            (None, 8, 8, 128)         73856     
_________________________________________________________________
batch_normalization_v1_4 (Ba (None, 8, 8, 128)         512       
_________________________________________________________________
conv2d_5 (Conv2D)            (None, 8, 8, 128)         147584    
_________________________________________________________________
batch_normalization_v1_5 (Ba (None, 8, 8, 128)         512       
_________________________________________________________________
max_pooling2d_2 (MaxPooling2 (None, 4, 4, 128)         0         
_________________________________________________________________
dropout_2 (Dropout)          (None, 4, 4, 128)         0         
_________________________________________________________________
flatten (Flatten)            (None, 2048)              0         
_________________________________________________________________
dense (Dense)                (None, 512)               1049088   
_________________________________________________________________
dropout_3 (Dropout)          (None, 512)               0         
_________________________________________________________________
dense_1 (Dense)              (None, 256)               131328    
_________________________________________________________________
dropout_4 (Dropout)          (None, 256)               0         
_________________________________________________________________
dense_2 (Dense)              (None, 10)                2570      
=================================================================
Total params: 1,471,786
Trainable params: 1,470,890
Non-trainable params: 896
_________________________________________________________________


Run Summary:
Test accuracy:0.8544999957084656, Test Loss:0.49447950910925864
Epoch:40, Batch size:500
Total time: 7.28 mins
_________________________________________________________________
Layer (type)                 Output Shape              Param #   
=================================================================
conv2d (Conv2D)              (None, 32, 32, 32)        896       
_________________________________________________________________
batch_normalization_v1 (Batc (None, 32, 32, 32)        128       
_________________________________________________________________
conv2d_1 (Conv2D)            (None, 32, 32, 32)        9248      
_________________________________________________________________
batch_normalization_v1_1 (Ba (None, 32, 32, 32)        128       
_________________________________________________________________
max_pooling2d (MaxPooling2D) (None, 16, 16, 32)        0         
_________________________________________________________________
dropout (Dropout)            (None, 16, 16, 32)        0         
_________________________________________________________________
conv2d_2 (Conv2D)            (None, 16, 16, 64)        18496     
_________________________________________________________________
batch_normalization_v1_2 (Ba (None, 16, 16, 64)        256       
_________________________________________________________________
conv2d_3 (Conv2D)            (None, 16, 16, 64)        36928     
_________________________________________________________________
batch_normalization_v1_3 (Ba (None, 16, 16, 64)        256       
_________________________________________________________________
max_pooling2d_1 (MaxPooling2 (None, 8, 8, 64)          0         
_________________________________________________________________
dropout_1 (Dropout)          (None, 8, 8, 64)          0         
_________________________________________________________________
conv2d_4 (Conv2D)            (None, 8, 8, 128)         73856     
_________________________________________________________________
batch_normalization_v1_4 (Ba (None, 8, 8, 128)         512       
_________________________________________________________________
conv2d_5 (Conv2D)            (None, 8, 8, 128)         147584    
_________________________________________________________________
batch_normalization_v1_5 (Ba (None, 8, 8, 128)         512       
_________________________________________________________________
max_pooling2d_2 (MaxPooling2 (None, 4, 4, 128)         0         
_________________________________________________________________
dropout_2 (Dropout)          (None, 4, 4, 128)         0         
_________________________________________________________________
flatten (Flatten)            (None, 2048)              0         
_________________________________________________________________
dense (Dense)                (None, 512)               1049088   
_________________________________________________________________
dropout_3 (Dropout)          (None, 512)               0         
_________________________________________________________________
dense_1 (Dense)              (None, 10)                5130      
=================================================================
Total params: 1,343,018
Trainable params: 1,342,122
Non-trainable params: 896
_________________________________________________________________


Run Summary:
Test accuracy:0.8535000085830688, Test Loss:0.48272762768268584
Epoch:40, Batch size:500
Total time: 7.57 mins
_________________________________________________________________
Layer (type)                 Output Shape              Param #   
=================================================================
conv2d (Conv2D)              (None, 32, 32, 32)        896       
_________________________________________________________________
batch_normalization_v1 (Batc (None, 32, 32, 32)        128       
_________________________________________________________________
conv2d_1 (Conv2D)            (None, 32, 32, 32)        9248      
_________________________________________________________________
batch_normalization_v1_1 (Ba (None, 32, 32, 32)        128       
_________________________________________________________________
max_pooling2d (MaxPooling2D) (None, 16, 16, 32)        0         
_________________________________________________________________
dropout (Dropout)            (None, 16, 16, 32)        0         
_________________________________________________________________
conv2d_2 (Conv2D)            (None, 16, 16, 64)        18496     
_________________________________________________________________
batch_normalization_v1_2 (Ba (None, 16, 16, 64)        256       
_________________________________________________________________
conv2d_3 (Conv2D)            (None, 16, 16, 64)        36928     
_________________________________________________________________
batch_normalization_v1_3 (Ba (None, 16, 16, 64)        256       
_________________________________________________________________
max_pooling2d_1 (MaxPooling2 (None, 8, 8, 64)          0         
_________________________________________________________________
dropout_1 (Dropout)          (None, 8, 8, 64)          0         
_________________________________________________________________
conv2d_4 (Conv2D)            (None, 8, 8, 128)         73856     
_________________________________________________________________
batch_normalization_v1_4 (Ba (None, 8, 8, 128)         512       
_________________________________________________________________
conv2d_5 (Conv2D)            (None, 8, 8, 128)         147584    
_________________________________________________________________
batch_normalization_v1_5 (Ba (None, 8, 8, 128)         512       
_________________________________________________________________
max_pooling2d_2 (MaxPooling2 (None, 4, 4, 128)         0         
_________________________________________________________________
dropout_2 (Dropout)          (None, 4, 4, 128)         0         
_________________________________________________________________
flatten (Flatten)            (None, 2048)              0         
_________________________________________________________________
dense (Dense)                (None, 512)               1049088   
_________________________________________________________________
dropout_3 (Dropout)          (None, 512)               0         
_________________________________________________________________
dense_1 (Dense)              (None, 10)                5130      
=================================================================
Total params: 1,343,018
Trainable params: 1,342,122
Non-trainable params: 896
_________________________________________________________________
